models/save_load/net.pkl (torch_old, 6795 bytes, 4 tensors)

weight f4 [10, 2]
00000000: 8945 763e 01e0 343f 23f1 373f 5f89 a53e
00000010: da84 dcbe 1620 24bf 0360 423f d914 02bf
00000020: 0869 ecbe 72f1 d73e bb9e 3dbf 377e 76be
00000030: 7828 ad3d 75bd d1be e16d 723e 002c 243e
00000040: 490b f53e 8b0c 06bf 7d5c 293f f338 c9be
0.24049963 0.706543 0.7185232 0.32331368 -0.43070108 -0.6411146 0.7592775 -0.5081306
-0.46173882 0.42176396 -0.7407033 -0.24071585 0.084549844 -0.40964857 0.23674728 0.1603241
0.47860172 -0.5236289 0.6615675 -0.3930126

bias f4 [10]
00000000: ff9b ecbe 8adf 133f dc5e e53d 4632 893e
00000010: 0e84 96be e617 56be 0a3d e8bd 7889 65bd
00000020: 4f85 76be 6168 613e
-0.46212766 0.5776297 0.111997336 0.26796168 -0.29397625 -0.20907554 -0.11339767 -0.056039304
-0.2407429 0.22012474

weight f4 [2, 10]
00000000: d5f9 833e 44b8 653e fc12 86be d07e 353e
00000010: 7627 0cbe b6d3 33be 9803 47be d047 fcbc
00000020: 2d0e 08be 14c8 92bd 8abc 60be 3238 0cbf
00000030: 94fc 163f 247e 87bd cd9d 1bbe 6e70 543e
00000040: 3f0e 2f3e 90a0 8abe b176 d93d 5b44 37be
0.25776544 0.22433573 -0.2618636 0.17724156 -0.13686928 -0.1756123 -0.19434965 -0.030795962
-0.13286658 -0.07167068 -0.21946922 -0.5477325 0.58979154 -0.06615856 -0.15196915 0.20746014
0.17095278 -0.27075624 0.10618342 -0.1789717

bias f4 [2]
00000000: f6c0 aabe 2114 70be
-0.33350343 -0.23445179
